logs/s1_waypoint_passing/model_800.pt (torch, 503163 bytes, 36 tensors)

std f4 [4]
0.24720886 0.050404117 0.055755652 0.27868977
00000000: 5224 7d3e 8c74 4e3d 0a60 643d 6db0 8e3e

actor.0.weight f4 [128, 26]
0.6471251 0.86242306 0.56679577 -0.20772395 0.075798795 -0.04611413 -0.48368558 -1.1994518
-1.2231342 -0.1920836 -0.5788051 0.49977225 -0.10403248 -0.09584769 -0.64601356 0.17886755
0.12137519 -0.18917818 -0.028652482 -0.46608877 -0.07986728 -0.15616643 -0.23654853 0.4567354
-0.78278935 0.031158753 2.2793536 2.0818028 -0.1156667 -0.41326913 0.5961052 -0.09738704
-0.46090892 -2.2181032 -0.28178433 0.16641714 0.092893235 0.017674735 -0.25663778 0.21448506
0.30392474 -0.23418906 -0.047922984 -0.1464193 0.02129871 -0.10476594 -0.25538042 -0.025297944
-0.29159337 -0.2974969 -0.9134292 -0.94592005 0.6749813 0.4054942 -1.1907594 -0.28454807
-0.061801743 -0.5238816 -0.88588566 -1.1769077 1.6018713 -0.30429044 -0.30854928 0.26488492
0.027529024 0.40439317 -0.5429952 0.012797686 0.68455654 0.21904972 0.021308137 -0.21576121
0.49650207 -0.45560202 0.16923627 -0.6613108 0.3167244 -0.44769976 0.3333072 0.10080961
0.14974673 0.030975139 0.108912535 -0.12974353 -0.80894417 -0.40162337 -0.08855296 -0.017765993
0.3005096 0.31413585 0.17121512 -0.2019724 -0.25003183 0.36432213 -0.077101596 -0.27440676
-0.00816143 0.082365975 -0.23202378 0.009335553 0.10234992 -0.23559299 0.12288365 0.021423977
0.81414413 -0.7715748 -0.13613836 -0.17337838 0.15911034 -0.08666155 -1.1586827 0.4983542
0.41681182 -0.1559188 0.14245623 -0.06817896 -0.5480673 0.15000214 0.13708192 0.11169219
-0.44340762 -0.05070827 0.09950015 0.4680084 -0.060945187 -0.016475147 0.00122967 0.26323524
0.03950972 -0.08866497 -0.38545337 -0.7641365 -0.98016655 0.18303186 0.4172462 0.34914535
0.07732005 -1.7100568 0.100527495 -0.11932038 -0.5000055 0.2603625 -0.9746988 -0.38047293
-0.21740513 0.10148986 -0.21945947 0.5255019 -0.5498478 -0.76600343 -0.0027144607 -0.37080464
0.43317932 -0.13792437 -0.08609737 -0.15486631 -0.2126226 0.23741035 0.6431595 -0.2760298
0.42771327 0.38370723 -0.41426218 -0.045750096 -1.2788514 0.30803812 0.02769787 -0.036954876
-0.114695884 -0.17397273 0.57465345 -0.028629746 0.40959424 -0.48423836 0.06293883 -0.107859544
0.06569288 0.43593946 -0.36657572 -0.09489475 -0.09096034 0.10358912 -0.76000595 0.11713018
0.3737201 0.30709398 -0.026324827 -0.07679389 0.8631686 -0.4804592 -0.14173071 0.21733646
-0.12021379 0.11736202 -0.39257792 -0.29580075 -0.3870843 -0.14496979 -0.08806984 -0.06646212
-0.09684758 -0.3728949 0.6772601 -0.21607848 0.1833259 -0.23200838 0.4706793 -0.3283964
-0.28503242 -0.21440448 -0.25778255 -0.0837389 0.022041274 -0.048746053 0.36431465 0.08378603
0.26546293 -0.2783329 -0.33636403 -0.066777885 -0.10873788 -0.20938008 0.05073538 -0.23944406
-0.089179724 0.20665322 0.025486942 0.15895908 -0.099978335 0.06753767 -0.04609493 0.15091547
-0.036503218 -0.0768629 -0.69498277 -0.36280608 1.2450242 -0.5030872 0.3861942 0.09508255
2.0226316 -0.43983662 -0.38839084 0.047582194 0.43517122 -0.4160635 0.5170875 -0.4789007
0.07151401 -0.015697869 0.10660664 -0.18944432 0.041166935 -0.3529505 -0.36855435 0.24768642
00000000: fea9 253f c2c7 5c3f 8719 113f 96b5 54be
00000010: 663c 9b3d 2ce2 3cbd a3a5 f7be a387 99bf
00000020: a98f 9cbf 90b1 44be 922c 14bf 26e2 ff3e
00000030: fb0e d5bd cb4b c4bd 2561 25bf 0e29 373e
00000040: 8e93 f83d edb7 41be 9cb8 eabc 30a3 eebe
00000050: 7591 a3bd 18ea 1fbe c739 72be 39d9 e93e
00000060: e264 48bf a440 ff3c eee0 1140 423c 0540
00000070: aae2 ecbd 0398 d3be 5a9a 183f db72 c7bd
00000080: 41fc ebbe 67f5 0dc0 0946 90be 4169 2a3e
00000090: cf3e be3d 9bca 903c 0766 83be f9a1 5b3e
000000a0: 069c 9b3e 42cf 6fbe e44a 44bd f1ee 15be
000000b0: a27a ae3c 868f d6bd 39c1 82be a23d cfbc
000000c0: ba4b 95be 8451 98be 7fd6 69bf d127 72bf
000000d0: 93cb 2c3f f09c cf3e ce6a 98bf 49b0 91be
000000e0: d323 7dbd 1b1d 06bf 67c9 62bf e9a4 96bf
000000f0: 1e0a cd3f f5cb 9bbe 2cfa 9dbe ff9e 873e
00000100: 8c84 e13c 9f0c cf3e bc01 0bbf 63ad 513c
00000110: 193f 2f3f 924e 603e 678e ae3c 82f0 5cbe
00000120: 8535 fe3e ab44 e9be 464c 2d3e aa4b 29bf
00000130: b329 a23e e738 e5be 3ea7 aa3e 4575 ce3d
00000140: 3557 193e 93bf fd3c 890d df3d 7ddb 04be
00000150: f716 4fbf 94a1 cdbe 415b b5bd fd89 91bc
00000160: 65dc 993e 6ad6 a03e 0453 2f3e dad1 4ebe
00000170: 2c04 80be 6e88 ba3e 71e7 9dbd 0b7f 8cbe
00000180: 85b7 05bc 7eaf a83d a497 6dbe 26f4 183c
00000190: d69c d13d 4a3f 71be 6caa fb3d 5681 af3c
000001a0: c06b 503f ed85 45bf db67 0bbe 1a8a 31be
000001b0: d2ed 223e 9c7b b1bd b74f 94bf 4828 ff3e
000001c0: 5c68 d53e 2ea9 1fbe 0ce0 113e 69a1 8bbd
000001d0: 234e 0cbf 299a 193e 345f 0c3e e0be e43d
000001e0: 5306 e3be 7ab3 4fbd bcc6 cb3d cc9e ef3e
000001f0: a9a1 79bd e3f6 86bc e12c a13a c5c6 863e
00000200: f2d4 213d fb95 b5bd 255a c5be 739e 43bf
00000210: 32ec 7abf b46c 3b3e 4ba1 d53e 2ec3 b23e
00000220: f959 9e3d 24e3 dabf 5ce1 cd3d 3e5e f4bd
00000230: 5c00 00bf 3c4e 853e dc85 79bf 59cd c2be
00000240: 739f 5ebe ead9 cf3d fcb9 60be 4b87 063f
00000250: d3c2 0cbf cd18 44bf 18e5 31bb 1bda bdbe
00000260: aec9 dd3e 0c3c 0dbe d153 b0bd 4695 1ebe
00000270: bdb9 59be b31b 733e 1aa6 243f c753 8dbe
00000280: 3cfd da3e 4675 c43e 2c1a d4be 7464 3bbd
00000290: 67b1 a3bf 2cb7 9d3e a5e6 e23c ff5d 17bd
000002a0: ade5 eabd e825 32be 7d1c 133f ee88 eabc
000002b0: 56b6 d13e 17ee f7be 13e6 803d 77e5 dcbd
000002c0: fd89 863d 7533 df3e d0af bbbe 2e58 c2bd
000002d0: 6a49 babd 8826 d43d c08f 42bf f3e1 ef3d
000002e0: 3e58 bf3e 6c3b 9d3e 2aa7 d7bc 1d46 9dbd
000002f0: 9ef8 5c3f c0fe f5be db21 11be 738d 5e3e
00000300: a632 f6bd 805b f03d f9ff c8be 3273 97be
00000310: ea2f c6be f672 14be f65d b4bd 4b1d 88bd
00000320: 0658 c6bd 15ec bebe eb60 2d3f ad43 5dbe
00000330: c9b9 3b3e 9b93 6dbe e1fc f03e 9323 a8be
00000340: c5ef 91be d98c 5bbe 13fc 83be 4d7f abbd
00000350: e78f b43c f1a9 47bd 7387 ba3e 0398 ab3d
00000360: c2ea 873e a681 8ebe e837 acbe d8c2 88bd
00000370: f7b1 debd bb67 56be e7cf 4f3d d330 75be
00000380: dca3 b6bd e79c 533e fec9 d03c 2bc6 223e
00000390: 71c1 ccbd 3151 8a3d 0ace 3cbd 9689 1a3e
000003a0: 6684 15bd 4c6a 9dbd 64ea 31bf b8c1 b9be
000003b0: f45c 9f3f 53ca 00bf 3fbb c53e a4ba c23d
000003c0: cc72 0140 4432 e1be 2adb c6be 8ce5 423d
000003d0: c3ce de3e 4606 d5be d95f 043f 7932 f5be
000003e0: f075 923d d198 80bc 9554 da3d b1fd 41be
000003f0: a99e 283d eeb5 b4be 28b3 bcbe 82a1 7d3e

actor.0.bias f4 [128]
0.14865115 -0.228607 -0.33824554 0.41213468 0.120217696 -0.2777064 0.14621694 0.2569288
0.15003021 0.3916635 0.061075717 0.19781688 -0.06567982 -0.31071308 -0.2782542 -0.20893702
-0.21089417 -0.0035998726 0.2257711 -0.11568257 0.24074683 -0.029923411 0.041131385 -0.08638396
0.31323344 0.20724136 -0.39785197 -0.1817769 -0.009304943 -0.2360691 -0.16100363 0.13458262
0.14065783 0.21590413 0.2144105 0.06108024 -0.34581485 0.19258606 0.13390048 -0.10746246
0.1056617 0.17867666 0.17430404 -0.29509512 -0.061460402 -0.1124169 0.13653328 0.118945666
0.024664907 0.24882564 -0.065202065 0.03131009 -0.17486581 0.13066205 -0.06393537 -0.3298282
0.02453169 0.107691795 -0.17210174 -0.42728332 0.0012885373 0.44228414 0.20133476 -0.06315984
0.2385207 0.07558663 0.23463796 0.36113662 0.0069589536 0.32028452 -0.24380618 -0.29679897
-0.2451577 -0.14929597 -0.15494752 -0.24887903 -0.066598125 -0.30265108 -0.0007600093 -0.030011598
0.038866363 0.3775742 0.5652379 0.022345988 0.10315956 0.2141388 0.061605565 0.17607147
-0.35011658 0.20798162 -0.010887616 -0.36491683 0.0056042224 -0.15367915 -0.22531496 0.26563743
0.11726396 0.08417962 -0.0867136 0.14838028 -0.043157466 0.4104614 -0.016856657 -0.22584984
0.20985846 0.17436443 0.23780867 -0.4197252 0.3137734 -0.1629517 -0.37807006 0.15817548
0.2278762 -0.009369418 0.18060376 -0.19614108 0.091606356 0.4920713 0.055539988 0.23509268
-0.36324468 -0.24844962 0.22363065 -0.06657024 -0.28710732 -0.04874703 -0.29547468 0.08242802
00000000: 0238 183e f417 6abe 852e adbe 5103 d33e
00000010: b234 f63d 892f 8ebe e5b9 153e 2c8c 833e
00000020: 85a1 193e 1e88 c83e 882a 7a3d 8290 4a3e
00000030: 2483 86bd c915 9fbe 5677 8ebe 96f3 55be
00000040: a4f4 57be d7eb 6bbb 8a30 673e fcea ecbd
00000050: 5686 763e f121 f5bc 6279 283d 13ea b0bd
00000060: 2260 a03e 1437 543e 41b3 cbbe b923 3abe
00000070: c273 18bc 19bc 71be 23de 24be 07d0 093e
00000080: 9b08 103e f915 5d3e 6d8e 5b3e 462f 7a3d
00000090: a50e b1be 4835 453e 351d 093e 4715 dcbd
000000a0: 2965 d83d 04f7 363e c27c 323e b516 97be
000000b0: e7bd 7bbd d53a e6bd 61cf 0b3e c999 f33d
000000c0: 0f0e ca3c 26cc 7e3e a988 85bd 023f 003d
000000d0: 0610 33be 46cc 053e 8cf0 82bd 3edf a8be
000000e0: aff6 c83c 848d dc3d 703b 30be e1c4 dabe
000000f0: 23e4 a83a 1173 e23e b32a 4e3e f259 81bd
00000100: c53e 743e 2acd 9a3d ef44 703e e6e6 b83e
00000110: ef07 e43b 55fc a33e 54a8 79be 09f6 97be
00000120: 9f0a 7bbe 0be1 18be 90aa 1ebe 25da 7ebe
00000130: 9964 88bd 15f5 9abe 5c3b 47ba e2da f5bc
00000140: 5632 1f3d 6851 c13e 6eb3 103f ef0e b73c
00000150: 5245 d33d 3447 5b3e 1e56 7c3d 144c 343e
00000160: 7b42 b3be 22f9 543e f961 32bc 61d6 babe
00000170: a0a3 b73b 115e 1dbe f7b8 66be a101 883e
00000180: 1628 f03d 5d66 ac3d e696 b1bd 00f1 173e
00000190: e2c5 30bd ff27 d23e f916 8abc 2e45 67be
000001a0: 23e5 563e 978c 323e 1e84 733e 39e6 d6be
000001b0: e8a6 a03e cfdc 26be 6692 c1be c1f8 213e
000001c0: 6158 693e 3082 19bc 31f0 383e 35d9 48be
000001d0: 1d9c bb3d c5f0 fb3e e67d 633d 23bc 703e
000001e0: 35fb b9be 9469 7ebe 6fff 643e fa55 88bd
000001f0: bbff 92be f7aa 47bd 7548 97be 06d0 a83d

actor.2.weight f4 [128, 128]
-0.031046277 0.028429957 0.039884478 0.020732203 -0.02173891 -0.04627897 0.0008802348 0.14809033
-0.09774922 -0.16194497 0.030335752 -0.057664275 0.029481854 0.045939274 0.010077641 0.037941124
0.025642592 -0.030704051 -0.05055024 0.034477394 -0.012659694 0.02080304 -0.024114307 -0.14272334
-0.02460734 -0.08570652 0.08057543 -0.013250969 -0.02050682 -0.053555425 -0.09034696 0.07607556
0.034089133 0.027155694 0.1597011 0.06293009 0.09726519 0.10952627 -0.0085274335 0.028313933
0.050803237 -0.06602482 0.048542783 0.03314302 0.06626887 0.01674457 0.15564618 -0.03780256
0.03923907 0.063125014 0.06421271 0.065158986 -0.052830663 -0.019636467 0.025050774 -0.021833576
-0.059423093 -0.069369644 -0.09612427 0.020830028 0.03669596 -0.039588794 0.078232236 0.06789623
0.07213037 -0.06745881 -0.03628506 0.05889212 -0.060657717 -0.030640751 0.040859547 0.0058649145
0.00060910697 -0.051058907 0.0035363776 0.077144645 -0.18471888 -0.013196658 0.05178849 0.060858853
0.05051172 -0.020237604 0.12165007 0.08951468 -0.08341205 0.010853711 0.026345666 0.0150984805
-0.039920133 0.1237342 -0.0050090775 -0.008231875 0.029693794 -0.004046369 0.03144228 -0.09177281
-0.09459764 -0.027390417 -0.09854897 0.08202328 0.06917205 0.060080443 -0.060405057 -0.0584957
-0.04184435 -0.011872736 -0.0035112896 0.18082786 -0.05954836 0.07073485 -0.010341859 -0.06694662
-0.062306415 0.041123614 0.105330124 -0.030172002 -0.16261286 0.0044383947 0.013218729 0.035618447
0.06575013 0.0071488116 0.12979983 0.083078064 0.12577397 -0.023203604 0.06371075 0.14087115
-0.056622863 -0.052141927 0.074374534 0.046181455 -0.10204009 -0.022958837 0.03772607 0.012769984
0.01859992 -0.06683343 0.08423873 0.004074474 -0.03281806 0.006919583 -0.05314129 -0.020092431
0.011782776 0.03414002 0.103490435 -0.017601168 -0.00039748102 0.004997034 0.072803564 0.007442762
0.10240566 -0.023109455 0.057887472 -0.04613075 0.053172514 -0.021889381 -0.009114202 0.0007158567
-0.00085881306 0.07303561 0.025184855 0.080414 0.08336508 -0.07105743 0.056540318 0.05829106
0.07525793 -0.20830968 -0.029597685 -0.041432466 -0.06278442 -0.060364954 -0.014834095 0.10326155
0.17922316 -0.07876623 0.05389116 -0.010198587 0.0006225912 -0.102656245 0.040294383 -0.031748056
-0.16991149 0.14699881 0.10915222 -0.011248218 -0.027790708 0.11840598 0.07558827 -0.070167825
-0.016207814 -0.18931165 0.052954793 -0.019925496 0.0013440872 -0.041786846 -0.12091767 0.04193575
0.0692211 0.104001775 0.020300023 -0.040198892 0.10211284 0.17476276 0.07137831 0.07607684
0.008678236 0.03826997 -9.084869e-05 0.16176331 0.03811126 0.08697865 0.02565035 0.009963629
0.02320057 0.0027659726 0.026976034 -0.075895585 0.05323697 -0.045124814 -0.123535596 -0.04410609
0.05941281 -0.03242193 -0.109034956 -0.039254364 -0.0065560327 0.045205884 0.013387757 -0.07129096
0.00011732081 0.06777222 -0.031162461 -0.029625395 0.0008537165 0.055135492 -0.030801892 0.0016232012
0.03945713 -0.09472381 -0.035172917 0.027005784 0.15241346 -0.010317157 -0.005070813 0.023391202
-0.065279566 0.08087842 0.018384812 0.07828666 0.08144561 -0.07268667 -0.0467049 -0.080468796
00000000: c354 febc f1e5 e83c e85d 233d 95d6 a93c
00000010: cc15 b2bc 048f 3dbd 8fbf 663a fea4 173e
00000020: be30 c8bd e7d4 25be af82 f83c 6031 6cbd
00000030: ee83 f13c d22a 3c3d b11c 253c 2768 1b3d
00000040: 6a10 d23c 1087 fbbc c50d 4fbd 2b38 0d3d
00000050: 9b6a 4fbc 236b aa3c 5e8b c5bc 1126 12be
00000060: 5595 c9bc e686 afbd bb04 a53d 981a 59bc
00000070: ebfd a7bc ef5c 5bbd d407 b9bd 81cd 9b3d
00000080: 0ca1 0b3d 9e75 de3c af88 233e 7ee1 803d
00000090: f932 c73d 4f4f e03d a6b6 0bbc 9ff2 e73c
000000a0: 0e17 503d 0538 87bd ccd4 463d fac0 073d
000000b0: f9b7 873d e92b 893c b661 1f3e dbd6 1abd
000000c0: 26b9 203d b047 813d f481 833d 1372 853d
000000d0: f764 58bd a8dc a0bc 4837 cd3c 54dc b2bc
000000e0: a165 73bd ac11 8ebd cddc c4bd bca3 aa3c
000000f0: 814e 163d dc27 22bd 3938 a03d 2e0d 8b3d
00000100: 16b9 933d d827 8abd a59f 14bd dd38 713d
00000110: 3a74 78bd 5002 fbbc 575c 273d 782e c03b
00000120: 7aac 1f3a 2523 51bd 92c2 673b 03fe 9d3d
00000130: f226 3dbe cc36 58bc 2b20 543d 2247 793d
00000140: 61e5 4e3d 55c9 a5bc ac23 f93d 7953 b73d
00000150: f0d3 aabd c3d3 313c ded2 d73c 9e5f 773c
00000160: 4b83 23bd 5b68 fd3d 3023 a4bb fcde 06bc
00000170: 6640 f33c 6797 84bb 9fc9 003d 62f3 bbbd
00000180: 68bc c1bd de61 e0bc 0bd4 c9bd d2fb a73d
00000190: 13aa 8d3d e916 763d 4b6b 77bd 3099 6fbd
000001a0: fb64 2bbd dd85 42bc aa1d 66bb f02a 393e
000001b0: fbe8 73bd 6fdd 903d e770 29bc 4f1b 89bd
000001c0: 0335 7fbd 3c71 283d 52b7 d73d 462b f7bc
000001d0: fc83 26be f46f 913b 5e93 583c a6e4 113d
000001e0: 01a8 863d 9440 ea3b 3fea 043e d524 aa3d
000001f0: e4ca 003e 7c15 bebc c87a 823d 8740 103e
00000200: 60ed 67bd c692 55bd ad51 983d c428 3d3d
00000210: 65fa d0bd 2c14 bcbc a786 1a3d 3239 513c
00000220: dc5e 983c f7df 88bd 5b85 ac3d 2a83 853b
00000230: 3b6c 06bd abbd e23b aeaa 59bd e298 a4bc
00000240: 8b0c 413c 68d6 0b3d cbf2 d33d 5330 90bc
00000250: 0065 d0b9 29be a33b 091a 953d 6ae2 f33b
00000260: 0fba d13d 0a50 bdbc 6a1b 6d3d 99f3 3cbd
00000270: 6ccb 593d 5c51 b3bc bc53 15bc 54a8 3b3a
00000280: f821 61ba b293 953d 7850 ce3c 18b0 a43d
00000290: 50bb aa3d 8f86 91bd d296 673d 9bc2 6e3d
000002a0: d420 9a3d 224f 55be d876 f2bc 17b5 29bd
000002b0: 1e95 80bd 3e41 77bd b40a 73bc cb7a d33d
000002c0: 4786 373e 3050 a1bd fabc 5c3d f917 27bc
000002d0: 6335 233a 703d d2bd b90b 253d 400a 02bd
000002e0: 47fd 2dbe db86 163e 338b df3d 724a 38bc
000002f0: 57a9 e3bc d67e f23d 06ce 9a3d 26b4 8fbd
00000300: 40c6 84bc eada 41be 20e7 583d cb3a a3bc
00000310: 152c b03a af28 2bbd afa3 f7bd d2c4 2b3d
00000320: cbc3 8d3d e2fe d43d 3c4c a63c 98a7 24bd
00000330: 8920 d13d 02f5 323e cb2e 923d 2dce 9b3d
00000340: 292f 0e3c f9c0 1c3d 0586 beb8 48a5 253e
00000350: 8d1a 1c3d dd21 b23d af20 d23c 7d3e 233c
00000360: 1f0f be3c 5245 353b d8fc dc3c 256f 9bbd
00000370: 020f 5a3d ccd4 38bd 3b00 fdbd 96a8 34bd
00000380: d95a 733d dccc 04bd b84d dfbd 2fc9 20bd
00000390: fdd3 d6bb ce29 393d 5358 5b3c ff00 92bd
000003a0: 210a f638 29cc 8a3d 6b48 ffbc f5b0 f2bc
000003b0: f2cb 5f3a c1d5 613d 4054 fcbc 98c1 d43a
000003c0: cd9d 213d 8ffe c1bd 7a11 10bd 3c3b dd3c
000003d0: 4612 1c3e 4b09 29bc 1029 a6bb e89e bf3c
000003e0: 4bb1 85bd 96a3 a53d bf9b 963c c254 a03d
000003f0: f5cc a63d c0dc 94bd a34d 3fbd d3cc a4bd

actor.2.bias f4 [128]
0.07046247 -0.102814175 0.10918905 0.08795031 0.058839556 0.02545678 -0.13571233 -0.042289842
0.07967836 -0.044303346 0.08076057 -0.088697806 -0.27098945 -0.000285258 -0.09580213 -0.019856652
0.1102745 0.25407588 -0.21182036 -0.06057707 -0.16365993 -0.028953709 -0.13348474 -0.03094586
-0.030583523 -0.09340562 -0.10217335 -0.11338704 -0.0717603 -0.07561723 0.037884373 -0.06610207
0.052347332 0.022783676 0.07811572 -0.043401454 -0.08692265 0.33905765 0.027724372 0.05172343
-0.009778111 -0.11301681 -0.02510859 0.28692448 -0.07526793 -0.014087594 0.009158604 -0.055011738
-0.010231724 0.23666942 -0.022509085 0.28139302 0.12680951 0.006181431 -0.40522745 -0.02254902
0.42892906 0.06871969 0.018621499 -0.0056166123 0.06181546 0.06921272 -0.03248294 0.066196255
0.016356278 0.0047701723 -0.01979637 0.23950309 -0.024219355 0.0060407952 -0.741954 -0.15225872
0.19275194 0.4052849 -0.05015684 -0.06101975 0.0031647354 -0.15588985 0.035316676 0.10828154
0.023314824 -0.0042466354 0.08432426 -0.40796694 0.017255856 0.12881537 0.06539698 0.3272191
0.21650991 0.00529149 0.053630978 0.20740621 0.1359056 0.04303542 0.42758873 0.053670384
-0.10393395 -0.10125172 0.07794628 -0.02354923 0.0135001335 -0.12855855 -0.047487054 0.03924931
0.123755775 -0.04958576 0.044999346 -0.0021083534 -0.11062133 -0.05149616 -0.29726923 0.2691177
-0.04453343 -0.09617643 0.2516268 0.048568495 -0.046727978 0.014205833 0.053323038 0.010523902
0.013586091 -0.050295826 0.018745042 -0.008764228 0.03126074 0.09194194 0.10760145 0.058535703
00000000: a14e 903d 3d90 d2bd 829e df3d 4b1f b43d
00000010: bf01 713d bd8a d03c 2cf8 0abe 1d38 2dbd
00000020: 682e a33d 6d77 35bd cc65 a53d 32a7 b5bd
00000030: 21bf 8abe ae8e 95b9 e833 c4bd 6baa a2bc
00000040: 99d7 e13d 3c16 823e 70e7 58be a91f 78bd
00000050: 7896 27be 5430 edbc 39b0 08be 2c82 fdbc
00000060: 4c8a fabc 724b bfbd 4340 d1bd 7737 e8bd
00000070: 10f7 92bd 35dd 9abd a52c 1b3d 8660 87bd
00000080: 286a 563d d5a4 ba3c 22fb 9f3d b9c5 31bd
00000090: 8104 b2bd f798 ad3e 391e e33c f3db 533d
000000a0: 5f34 20bc 5b75 e7bd 88b0 cdbc c4e7 923e
000000b0: 1326 9abd a7cf 66bc f80d 163c fd53 61bd
000000c0: f6a2 27bc 7859 723e f964 b8bc bf12 903e
000000d0: 5ada 013e 9a8d ca3b f979 cfbe b9b8 b8bc
000000e0: 979c db3e e9bc 8c3d 1d8c 983c 8f0b b8bb
000000f0: 3532 7d3d 66bf 8d3d d50c 05bd e791 873d
00000100: 9afd 853c 1b4f 9c3b ff2b a2bc 4c40 753e
00000110: ab67 c6bc ddf1 c53b b3f0 3dbf b6e9 1bbe
00000120: c460 453e 8181 cf3e 4271 4dbd d8ef 79bd
00000130: 7367 4f3b 97a1 1fbe 38a8 103d b6c2 dd3d
00000140: bbfe be3c 5c27 8bbb 33b2 ac3d 0be1 d0be
00000150: 275c 8d3c 2de8 033e daee 853d 4389 a73e
00000160: c6b4 5d3e 3c64 ad3b 28ac 5b3d 4b62 543e
00000170: d62a 0b3e e945 303d e9ec da3e 7ad5 5b3d
00000180: 53db d4bd 105d cfbd 4da2 9f3d 51ea c0bc
00000190: aa2f 5d3c daa4 03be c981 42bd e2c3 203d
000001a0: ab73 fd3d 701a 4bbd 3c51 383d 4d2c 0abb
000001b0: 708d e2bd a3ed 52bd ac33 98be ccc9 893e
000001c0: b068 36bd 26f8 c4bd 3ad5 803e c2ef 463d
000001d0: d665 3fbd 95bf 683c 4269 5a3d 726c 2c3c
000001e0: 3298 5e3c ff02 4ebd 348f 993c d697 0fbc
000001f0: 430b 003d 0e4c bc3d 265e dc3d 22c3 6f3d

actor.4.weight f4 [4, 128]
-0.0069409315 0.0015726137 -0.017419918 -0.30201438 -0.3666558 -0.0047577294 -0.12136667 -0.0010337089
-0.0008902825 -0.25585166 -0.007649213 -0.019130401 -0.02700761 0.0015907777 -0.00015743122 0.0023330646
0.23333046 0.03016463 -0.1725731 -0.009995135 0.0092927255 0.02153393 -0.0025231016 0.0012487245
0.0045804684 0.004661075 0.01417392 -0.12515295 0.004760709 0.0044313166 -0.009597071 0.009628425
-0.013593819 -0.0054187975 0.00095723703 0.00598318 -0.032665905 -0.09631556 0.008037676 -0.010982733
0.024236828 0.014485376 0.0028888194 -0.24297689 0.052439388 -0.013912717 -0.31425896 0.0929097
-0.0027474202 -0.30324334 0.03193392 -0.13261801 0.00011303125 0.019956749 -0.20664805 -0.008072513
0.2988767 -0.011094876 -0.013497469 0.009917813 -0.0017318001 0.008990683 0.013585473 0.013158645
-0.008891633 -0.011997069 -0.0018148824 -0.05061887 0.0061438675 -0.059439186 -0.58046126 0.006485813
0.006195622 -0.16386774 0.0027892648 0.0037347146 -0.0038790756 -0.025387155 -0.0015827325 -0.14763781
-0.03432832 -0.0072452263 -0.0006180543 -0.04609472 0.0007318469 -0.007052171 0.021146672 -0.39278618
0.007919575 -0.0055826493 0.0071425945 -0.120735794 -0.00394362 -0.013217501 0.34383976 0.0068199863
-0.088282004 -0.016200691 -0.005701573 -0.004420048 0.009773937 0.00928511 0.006626258 0.011732913
0.004460958 -0.0032028886 -0.007070654 -0.003664804 -0.015959859 0.0018728949 -0.080900535 0.050977387
0.008458851 0.0015041559 0.021744316 0.0034454372 -0.0086567765 0.0034889232 0.0023254289 -0.00947838
0.010231695 -0.006470081 0.21612059 -0.006189812 0.0104352245 -0.0039842273 0.0025856432 0.015746562
0.0004825025 -0.00032744164 -0.0021462045 -0.058592144 0.025548412 0.00028861559 -0.0421026 7.949996e-05
-0.00045768396 -0.03722841 0.0014618317 0.0026835487 -0.05295051 0.0019935449 0.002312757 -0.0019202756
-0.020410677 -0.019648815 0.01677015 -0.00041629354 0.00047457597 -0.0020125508 0.0012498136 0.0024655836
-0.001338393 0.0017660883 -0.002325563 -0.026507104 -0.0016193236 0.00087337615 0.07564762 0.0015733675
0.0026724164 -0.0013221954 -0.0018060717 0.00087965315 -0.072683714 0.030308228 0.0010183231 -0.00032591377
-0.000107309475 -0.0031908213 0.0014584173 -0.016520072 -0.10012019 -0.0004254399 -0.00475371 0.0045433096
-0.0017864596 -0.041219577 -0.00026048542 0.12979907 -0.00091602496 -0.0061140587 -0.06628471 -0.0009925355
-0.074136026 -0.0005641242 -0.0011983366 0.0012812606 0.0025876337 0.00014278242 -0.0010107685 0.00025277972
-0.0018818603 -0.003564841 0.0006811524 0.105031356 -0.0010475904 0.040283166 0.22795473 0.05400875
-0.035416048 0.047287248 0.0013605336 -0.002623158 -0.00023101665 -0.010858906 -0.0017999351 -0.033409264
0.0032373667 -0.0024724915 -0.0033430408 -0.0626421 -7.986218e-05 -0.0020973545 0.0010971138 -0.05211129
0.11617046 0.0012883497 0.0013390116 -0.06416315 0.0067389086 0.00298159 0.0049948385 0.00026181576
0.048240457 0.0020741264 0.0032957087 0.0006594691 0.0005992598 0.00020868094 0.0013999903 -0.0015367777
-0.001562987 0.0013252426 -0.00024373019 0.00034941634 -0.00014782096 -0.0021747116 0.060316637 -0.018591788
0.0006878335 -0.0006215332 -0.023436982 -0.0006336556 -0.0003371412 0.00021281872 -0.0006109794 0.0014762357
-5.1841773e-05 0.001819392 -0.012732684 0.0004725006 -0.0007727745 -0.001828287 -0.00048178944 -0.0044849045
00000000: c170 e3bb 2920 ce3a 37b4 8ebc a1a1 9abe
00000010: 4fba bbbe bae6 9bbb 178f f8bd 847d 87ba
00000020: d961 69ba fdfe 82be 40a6 fabb 5cb7 9cbc
00000030: 103f ddbc a481 d03a 1f14 25b9 54e6 183b
00000040: 2eee 6e3e d01b f73c 01b7 30be a2c2 23bc
00000050: 8440 183c ed67 b03c 9f5a 25bb 3eac a33a
00000060: c117 963b eebb 983b bb39 683c 1828 00be
00000070: b9ff 9b3b 9434 913b 093d 1dbc 8bc0 1d3c
00000080: 9cb8 5ebc 2b90 b1bb 17ef 7a3a 8d0e c43b
00000090: afcc 05bd 1841 c5bd 75b0 033c ecf0 33bc
000000a0: 508c c63c 1254 6d3c 5952 3d3b efce 78be
000000b0: afca 563d 2af2 63bc 8de6 a0be 7147 be3d
000000c0: 100e 34bb b642 9bbe 24cd 023d 04cd 07be
000000d0: 310b ed38 567c a33c 8c9b 53be 9342 04bc
000000e0: 5e06 993e 48c7 35bc 7d24 5dbc 537e 223c
000000f0: 92fd e2ba a84d 133c 9b95 5e3c 5b97 573c
00000100: 36ae 11bc 5b8f 44bc 59e1 edba bb55 4fbd
00000110: 7f52 c93b 8176 73bd 1c99 14bf f186 d43b
00000120: a504 cb3b f2cc 27be 19cc 363b 1dc2 743b
00000130: 1738 7ebb b9f8 cfbc b173 cfba 5e2e 17be
00000140: da9b 0cbd 5d69 edbb ec04 22ba d1cd 3cbd
00000150: 6ad9 3f3a e615 e7bb c93b ad3c 451b c9be
00000160: 1bc1 013c a8ee b6bb 6d0c ea3b 5444 f7bd
00000170: 7b39 81bb 388e 58bc c40b b03e 317a df3b
00000180: 32cd b4bd 50b7 84bc 43d4 babb 0dd6 90bb
00000190: dd22 203c 9320 183c 1521 d93b 673b 403c
000001a0: 3a2d 923b 8ee7 51bb f2b0 e7bb 352d 70bb
000001b0: 40be 82bc ed7b f53a 2eaf a5bd aacd 503d
000001c0: fe96 0a3c 1927 c53a 2321 b23c d8cc 613b
000001d0: 27d5 0dbc 6ba6 643b 3966 183b 354b 1bbc
000001e0: d7a2 273c f902 d4bb b74e 5d3e e8d3 cabb
000001f0: 81f8 2a3c 1f8e 82bb e573 293b effe 803c
00000200: 64f8 fc39 79ac abb9 56a7 0cbb 51fe 6fbd
00000210: e74a d13c 5451 9739 c773 2cbd 37b9 a638
00000220: 4df5 efb9 d17c 18bd ef9a bf3a 7ade 2f3b
00000230: a2e2 58bd 22a6 023b a091 173b c2b1 fbba
00000240: 4b34 a7bc 8df6 a0bc 8e61 893c f941 dab9
00000250: 82d0 f839 00e5 03bb c9d0 a33a a195 213b
00000260: 046d afba 177c e73a 7968 18bb 6d25 d9bc
00000270: 7c3f d4ba 48f3 643a 24ed 9a3d 7439 ce3a
00000280: b523 2f3b 844d adba b6b9 ecba 8698 663a
00000290: 33db 94bd f648 f83c 4179 853a 68df aab9
000002a0: 560b e1b8 191d 51bb 5d28 bf3a 1a55 87bc
000002b0: d00b cdbd 940d dfb9 02c5 9bbb 0be0 943b
000002c0: a327 eaba dcd5 28bd c391 88b9 0cea 043e
000002d0: 6521 70ba 7158 c8bb 47c0 87bd f717 82ba
000002e0: a1d4 97bd bce1 13ba 8111 9dba f9ef a73a
000002f0: 4a95 293b ddb7 1539 c37b 84ba 8587 8439
00000300: c1a8 f6ba 1ca0 69bb 5d8f 323a ae1a d73d
00000310: 4d4f 89ba f6ff 243d f76c 693e 4738 5d3d
00000320: 6b10 11bd 46b0 413d ef53 b23a 4ae9 2bbb
00000330: 0f3d 72b9 8ee9 31bc cdeb ebba 27d8 08bd
00000340: 002a 543b 8609 22bb eb16 5bbb 804a 80bd
00000350: ae7b a7b8 c573 09bb 08cd 8f3a a672 55bd
00000360: c7ea ed3d d8dd a83a c681 af3a f867 83bd
00000370: 10d2 dc3b c866 433b beab a33b 5144 8939
00000380: c997 453d 11ee 073b d1fc 573b 39e0 2c3a
00000390: a517 1d3a 5dd1 5a39 e17f b73a b46d c9ba
000003a0: 24dd ccba c3b3 ad3a d391 7fb9 de31 b739
000003b0: 6300 1bb9 9b85 0ebb 940e 773d ce4d 98bc
000003c0: ba4f 343a 63ee 22ba eafe bfbc e81b 26ba
000003d0: 53c2 b0b9 1728 5f39 222a 20ba 407e c13a
000003e0: ae70 59b8 aa78 ee3a bf9c 50bc f5b9 f739
000003f0: 0594 4aba 22a3 efba af98 fcb9 1bf6 92bb

actor.4.bias f4 [4]
0.46486813 0.07433643 -0.07418232 -0.083792366
00000000: 3203 ee3e b33d 983d e6ec 97bd 559b abbd

critic.0.weight f4 [128, 26]
0.74156064 0.016887693 0.20065053 0.15475705 -0.30598152 -0.001502877 -0.57349634 0.75511825
-0.149166 0.021478819 -0.3238801 0.04967832 0.47669715 -0.055594813 -0.1730974 -0.24642982
0.31940672 -0.3757608 0.19261688 -0.088310875 -0.11338549 0.0056329756 -0.16179876 0.098133355
-0.18329468 0.2985059 0.051280916 0.07313359 -0.03229561 0.33242616 0.4148006 0.08517289
2.4564645 1.2828374 0.0018577054 0.31247544 0.22092597 0.3731739 0.34428716 0.1697619
-0.1773111 -0.1636744 -0.10257752 -0.059019152 0.029300047 0.123709194 0.040643957 0.04335646
0.03940371 -0.095743045 -0.02503713 0.10713727 -0.26918966 -0.06962678 -0.05338022 0.075954586
-0.17124008 -0.04369035 0.08565766 0.5905751 -0.17389429 0.34715343 -0.22707812 0.2832619
-0.34368882 0.12965225 0.08793913 0.18428202 0.18694489 -0.021096252 0.079026364 -0.030668328
0.03814577 0.07852503 0.06825019 -0.15192442 0.23456408 -0.22763309 -0.47719315 1.4857534
-0.17230599 0.10242179 -0.4301851 0.0057774717 -0.24740018 1.2758769 -0.02453159 -0.16699977
0.03282273 0.1378072 0.019104557 -0.03413965 -0.08418086 -2.4357236e-05 -0.07797166 -0.3333659
-0.090336755 -0.15107358 0.018542306 0.040548258 0.022814171 -0.18115214 -0.09521948 -0.07658699
0.25430825 0.1317924 0.00881355 0.031175952 0.032688003 0.10091496 -0.4345801 -0.55927116
0.17999464 -0.05091416 0.030735817 0.12747073 -0.08482268 0.034275524 -0.18132934 0.28402486
-0.20362905 -0.099211186 0.0023176973 0.28033105 -0.12757519 -0.05980746 -0.013596761 -0.08064465
0.09064514 0.10577388 0.69862163 -0.097284995 -0.029869054 -0.7941221 0.70472467 0.0812039
0.5122397 -0.5304008 0.06310554 -0.04157234 -0.15179406 0.15508819 0.04939146 0.087461166
-0.011047438 -0.07284918 -0.19191968 -0.19584365 0.033009768 0.15657432 -0.0010804894 0.014944281
-0.0004054577 0.015163427 -0.11898867 -0.15499173 0.39234728 0.008540344 0.14236215 -0.49778575
-1.033751 0.18782362 -0.5479514 0.37656346 -0.5042006 0.0021698824 0.18060496 0.041973986
0.0046116384 -0.22489111 -0.06479905 0.1284671 0.30734825 -0.02646994 -0.12119029 0.25765538
0.1105534 -0.03391236 -0.30003178 -0.52891153 -0.1179173 0.16893215 -0.33416194 0.0769675
0.07674373 -0.30021697 0.017771112 0.060264573 -1.3748857 -1.0395557 0.122578055 0.18492319
-0.15708417 -0.33086583 0.016764728 0.19776338 0.11013828 0.017987287 0.013246221 -0.03409559
-0.051229984 -0.36210287 0.012265946 -0.08272068 -0.1353484 -0.20712762 -0.42587748 1.285502
-0.804868 0.21188614 -0.766211 0.097722195 0.30377978 0.033198833 0.21905571 -0.36932743
0.6119529 0.25703424 0.29009563 0.31444928 -0.09199601 0.13912715 -0.102408715 0.03918458
0.056030937 -0.1753483 -0.053815696 0.11067144 -0.1123772 0.025161969 -0.11155564 -0.041066807
0.19575262 0.022753183 -1.8218279 -4.38428 0.016266346 1.0053358 0.17330444 -0.037440874
-0.73305213 1.3839154 0.011176745 -0.048329227 -0.025621401 -0.108290076 0.026321175 0.11217382
0.03984814 0.021075934 0.046516467 -0.016229305 -0.006195774 0.0037103505 -0.08021294 0.046165098
00000000: ebd6 3d3f 0f58 8a3c 5577 4d3e a278 1e3e
00000010: 9ca9 9cbe 2ffc c4ba a8d0 12bf 6e4f 413f
00000020: f9be 18be 59f4 af3c 9dd3 a5be 7e7b 4b3d
00000030: a611 f43e 63b7 63bd 7240 31be 1958 7cbe
00000040: 4789 a33e b863 c0be 5c3d 453e 55dc b4bd
00000050: a736 e8bd d394 b83b 93ae 25be 24fa c83d
00000060: 9ab1 3bbe c4d5 983e f00b 523d 10c7 953d
00000070: 6748 04bd c333 aa3e bf60 d43e 206f ae3d
00000080: b736 1d40 0434 a43f 407e f33a c8fc 9f3e
00000090: 6b3a 623e a610 bf3e 6846 b03e 10d6 2d3e
000000a0: 0a91 35be 439a 27be 2a14 d2bd 11be 71bd
000000b0: a706 f03c 3f5b fd3d 477a 263d 8b96 313d
000000c0: c965 213d ee14 c4bd ab1a cdbc c96a db3d
000000d0: 3ad3 89be 7c98 8ebd 38a5 5abd 148e 9b3d
000000e0: 8f59 2fbe a7f4 32bd 496d af3d ee2f 173f
000000f0: 5811 32be 18be b13e 2b87 68be b407 913e
00000100: fbf7 afbe 8fc3 043e 6e19 b43d 6db4 3c3e
00000110: 7b6e 3f3e 0cd2 acbc 93d8 a13d 253c fbbc
00000120: bd3e 1c3d bbd1 a03d c1c6 8b3d 1392 1bbe
00000130: 9131 703e a618 69be a952 f4be 2b2d be3f
00000140: fb70 30be 84c2 d13d 3941 dcbe f250 bd3b
00000150: 7956 7dbe ef4f a33f 79f6 c8bc fd01 2bbe
00000160: 2071 063d 551d 0d3e 2981 9c3c 05d6 0bbd
00000170: 0467 acbd c452 ccb7 9baf 9fbd efae aabe
00000180: 7a02 b9bd 08b3 1abe 09e6 973c ee15 263d
00000190: c9e4 ba3c f27f 39be 6e02 c3bd a4d9 9cbd
000001a0: b134 823e 96f4 063e b566 103c b664 ff3c
000001b0: dbe3 053d 81ac ce3d 4881 debe 652c 0fbf
000001c0: 8450 383e 5e8b 50bd aec9 fb3c b087 023e
000001d0: 83b7 adbd 7e64 0c3d 66ae 39be b56b 913e
000001e0: 2284 50be 3c2f cbbd 82e4 173b 8d87 8f3e
000001f0: 12a3 02be abf8 74bd f3c4 5ebc 0629 a5bd
00000200: 29a4 b93d fa9f d83d ded8 323f 5b3d c7bd
00000210: f2af f4bc 964b 4bbf d668 343f 3b4e a63d
00000220: 2422 033f 59c8 07bf 7a3d 813d c247 2abd
00000230: e76f 1bbe 70cf 1e3e b34e 4a3d d71e b33d
00000240: 5000 35bc f331 95bd 9886 44be 3d8b 48be
00000250: 4035 073d 0555 203e 359f 8dba dcd8 743c
00000260: 9c93 d4b9 0670 783c 55b0 f3bd 27b6 1ebe
00000270: bee1 c83e cdec 0b3c 62c7 113e c6dd febe
00000280: f451 84bf d654 403e 8b46 0cbf edcc c03e
00000290: 4a13 01bf 9634 0e3b 82f0 383e eaec 2b3d
000002a0: 3a1d 973b db49 66be 5db5 84bd e18c 033e
000002b0: c05c 9d3e 7dd7 d8bc 9d32 f8bd 68eb 833e
000002c0: d269 e23d b0e7 0abd c49d 99be bf66 07bf
000002d0: a07e f1bd 8dfc 2c3e 4617 abbe 23a1 9d3d
000002e0: d12b 9d3d 0ab6 99be b994 913c fcd7 763d
000002f0: 41fc afbf 2910 85bf 340a fb3d 815c 3d3e
00000300: acda 20be 3f67 a9be 2f56 893c 7c82 4a3e
00000310: 2e90 e13d 135a 933c ad06 593c d1a7 0bbd
00000320: 88d6 51bd 8c65 b9be 1bf7 483c 7669 a9bd
00000330: c598 0abe 4319 54be 9d0c dabe 548b a43f
00000340: d40b 4ebf aef8 583e 6726 44bf 9322 c83d
00000350: 0689 9b3e 80fb 073d 2450 603e 7c18 bdbe
00000360: f2a8 1c3f fe99 833e 6a87 943e 7fff a03e
00000370: 6768 bcbd 5977 0e3e a9bb d1bd 0380 203d
00000380: b280 653d 818e 33be d96d 5cbd b5a7 e23d
00000390: 0426 e6bd 7920 ce3c 4977 e4bd ab35 28bd
000003a0: 6073 483e e264 ba3c a831 e9bf 064c 8cc0
000003b0: 0041 853c d8ae 803f b876 313e 9a5b 19bd
000003c0: 4ea9 3bbf 2424 b13f ab1e 373c def4 45bd
000003d0: f9e3 d1bc 30c7 ddbd 819f d73c 63bb e53d
000003e0: ce37 233d 70a7 ac3c 0d88 3e3d 52f3 84bc
000003f0: eb05 cbbb 5a29 733b af46 a4bd 9d17 3d3d

critic.0.bias f4 [128]
0.19923173 -0.27562308 -0.3577476 -0.56135607 0.1449936 0.14693476 -0.19061682 -0.28323722
-0.22957033 -0.045868624 0.1308012 0.35397193 0.30428421 -0.27580667 -0.037734754 0.23994671
-0.026714053 0.016991775 0.1188184 -0.20562749 0.19604962 0.0769074 -0.08471233 -0.7437116
0.06979893 0.51312685 -0.42901695 -0.076903366 0.11183341 0.4564079 0.049327035 0.31300825
0.22916842 -0.2575983 0.14733265 -0.49468413 0.7410003 0.0037863387 0.27645934 0.040185545
-0.024309732 -0.13901399 -0.16350359 -0.006620908 -0.2981498 -0.5270001 -0.09900614 0.008176309
0.5601945 -0.11858799 0.14879023 -0.030924644 -0.16630974 0.80791736 0.27715862 -0.11522741
0.49267903 0.18193042 -0.055077065 -0.44477245 -0.11594884 -0.365047 -0.28471076 -0.40150812
-0.4120174 0.14960817 -0.026999379 0.035086833 -0.0023205446 -0.20223492 0.0142932 0.1712236
-0.39139208 -0.19951013 -0.5217536 -0.26636347 -0.309286 -0.16549037 -0.17663588 0.61382097
0.124186374 0.18703973 0.33205986 0.3393426 0.3489174 -0.26653317 0.47628966 -0.0655318
-0.37939242 -0.14646663 -0.62631947 0.085053906 -0.20033392 0.06919695 0.13736984 0.58868814
0.37398 0.5125245 0.23855208 0.36540112 0.24727984 -0.124788366 -0.008791248 -0.62360907
0.122325964 -0.3278338 0.2308589 -0.22415861 0.29585344 -0.12107111 -0.23263985 0.38904616
0.37511814 -0.33848122 0.13625883 0.10454505 0.0951768 -0.135504 0.12009952 -0.31683984
0.7516576 0.16215615 -0.3358327 -0.3610516 -0.20433383 0.029071745 -0.077532 -0.23075016
00000000: 6703 4c3e 781e 8dbe b22a b7be 08b5 0fbf
00000010: 3479 143e 1176 163e 0e31 43be 7804 91be
00000020: 7c14 6bbe bde0 3bbd c0f0 053e cf3b b53e
00000030: 24cb 9b3e 8836 8dbe c28f 1abd 97b4 753e
00000040: 6ed7 dabc 5632 8b3c 1057 f33d 0390 52be
00000050: 3bc1 483e a081 9d3d a87d adbd e263 3ebf
00000060: bef2 8e3d 485c 033f 1ca8 dbbe 837f 9dbd
00000070: ea08 e53d 4cae e93e 250b 4a3d 9e42 a03e
00000080: 20ab 6a3e ede3 83be 5fde 163e 3d47 fdbe
00000090: 32b2 3d3f 3924 783b 148c 8d3e 9999 243d
000000a0: 3425 c7bc af59 0ebe 7c6d 27be 34f4 d8bb
000000b0: 17a7 98be 7be9 06bf bbc3 cabd edf5 053c
000000c0: e868 0f3f 43de f2bd 775c 183e ae55 fdbc
000000d0: 1a4d 2abe acd3 4e3f bce7 8d3e 59fc ebbd
000000e0: 6d40 fc3e f84b 3a3e 7d98 61bd 37b9 e3be
000000f0: 9676 edbd 71e7 babe 9cc5 91be 7992 cdbe
00000100: f2f3 d2be e232 193e cd2d ddbc 36b7 0f3d
00000110: 4714 18bb ac16 4fbe 072e 6a3c 3d55 2f3e
00000120: 8b64 c8be 624c 4cbe a591 05bf cb60 88be
00000130: bc5a 9ebe 4f76 29be 09e0 34be 5f23 1d3f
00000140: 6d55 fe3d 5887 3f3e c003 aa3e 50be ad3e
00000150: 4da5 b23e 0977 88be 3ddc f33e 8935 86bd
00000160: b93f c2be 59fb 15be 7956 20bf be30 ae3d
00000170: 5624 4dbe 21b7 8d3d aeaa 0c3e 44b4 163f
00000180: 4e7a bf3e ce34 033f ff46 743e db15 bb3e
00000190: ed36 7d3e 0b91 ffbd 2b09 10bc d8a4 1fbf
000001a0: 0986 fa3d d5d9 a7be 4766 6c3e d689 65be
000001b0: 1a7a 973e 21f4 f7bd 2439 6ebe 0f31 c73e
000001c0: 7c0f c03e 694d adbe 6f87 0b3e b71b d63d
000001d0: 0eec c23d 90c1 0abe bdf6 f53d d538 a2be
000001e0: a26c 403f 430c 263e 43f2 abbe c1db b8be
000001f0: e33c 51be de27 ee3c 19c9 9ebd c549 6cbe

critic.2.weight f4 [128, 128]
0.011387216 0.15881884 -0.22644496 -0.09900963 0.38028204 0.013565793 0.065624386 0.5523287
0.118505865 -0.07915957 0.5829936 0.3042671 0.014876678 -0.023156123 -0.07324968 -0.07170259
-0.06196148 -0.17029886 0.10870704 -0.02989862 -0.013163701 -0.118697524 -0.014290337 -0.016296752
0.066594936 -0.20920235 -0.10982544 0.38592783 -0.12248787 -0.1306044 0.3605977 0.0345509
-0.18891864 0.20493521 0.19989932 0.14011475 -0.054018687 0.15079723 0.32118586 -0.36048847
0.008507043 -0.11940285 0.08160467 -0.07161851 -0.51861614 0.07769388 -0.51272255 -0.17337161
0.022238951 -0.05205614 0.36457115 0.27648738 0.1043555 0.02680658 -0.02333869 0.16791984
0.06329795 0.3529837 -0.22195508 -0.006129286 -0.26207697 -0.17178114 -0.34020343 0.11411656
-0.32325757 0.12316379 0.089990795 -0.29962924 -0.06143885 -0.23769526 0.29007757 -0.5588186
-0.0597811 0.012479371 -0.0427394 -0.14418101 -0.31155315 -0.17449538 0.012371508 0.008884489
0.27594078 0.11679834 0.06576704 0.29813814 -0.08731844 -0.35839275 -0.060636703 -0.012451551
-0.09093055 -0.007940059 0.06666085 -0.0755235 -0.035375055 -0.22431213 -0.04121654 0.10416832
0.19403979 0.23127021 0.31433338 0.12879527 -0.42450076 -0.19150652 0.1480427 -0.115591645
0.33739996 0.31126457 0.27870843 0.039918095 -0.25690076 -0.22295278 0.17030045 -0.13064954
0.13069703 0.04351856 -0.23494713 0.015645038 0.30424657 -0.05473616 -0.12203645 0.0119496845
0.3619802 -0.16360575 0.031033127 0.030289488 -0.051292356 0.41231334 -0.5819417 0.18463728
0.05621893 0.24437861 0.22880341 0.073893085 0.21068327 -0.11241778 0.20366335 -0.19416219
0.028136117 -0.50757694 -0.03481 -0.13473417 -0.31084982 0.13006988 0.18380229 -0.26649842
-0.03402704 -0.04340468 0.14578497 0.323436 -0.25906447 -0.22168128 -0.15949966 -0.027862884
-0.05459783 -0.36184588 -0.0566993 0.003101794 0.15024976 -0.07735649 0.10471324 -0.3292734
-0.129352 0.4924105 0.11179871 -0.047268726 0.0049684267 0.06629814 0.039324958 0.20122458
0.21840207 0.42377 0.07264444 -0.069336705 -0.20547098 0.26800346 -0.037503242 -0.10555961
0.047355954 -0.124724634 0.043646347 -0.17921759 0.085086256 0.00572711 -0.17902069 -0.14084436
-0.02598607 -0.046766613 -0.10957739 -0.013022293 0.030106876 0.43392962 -0.03341647 -0.18086436
0.14490233 0.12021697 0.04871538 0.08414858 0.27644968 -0.16907789 -0.17499301 -0.2635479
0.048163462 0.1411446 0.11465183 -0.19726294 0.062447216 0.36720037 0.23532556 -0.12917458
0.14167573 -0.18375905 0.037074212 0.07317697 -0.05863089 0.06516041 -0.19731998 -0.13281792
0.08027698 0.027129553 0.061914835 -0.20148855 -0.013792681 0.19455913 -0.03179702 0.13919903
-0.12678778 -0.19633009 0.18502268 -0.29257792 0.046335444 0.113075696 0.4436154 0.08276084
0.0241358 0.22947079 0.108627625 -0.0020257444 0.10085257 0.106957115 0.11768247 0.024063261
0.049164485 0.1520236 -0.03582518 -0.077758655 0.17001832 0.30422613 0.008057341 -0.03848176
-0.13219284 -0.04817376 -0.0342724 0.18478774 0.014370577 -0.0772772 0.12717304 0.2685402
00000000: 7291 3a3c 68a1 223e 30e1 67be 90c5 cabd
00000010: 54b4 c23e 0f43 5e3c 1466 863d 6a65 0d3f
00000020: 34b3 f23d 6a1e a2bd 123f 153f e6c8 9b3e
00000030: 4fbd 733c e9b1 bdbc ee03 96bd cfd8 92bd
00000040: 52cb 7dbd d362 2ebe cca1 de3d f3ed f4bc
00000050: 90ac 57bc b017 f3bd 0522 6abc c480 85bc
00000060: ed62 883d 2439 56be 29ec e0bd 5598 c53e
00000070: ecda fabd 29bd 05be 43a0 b83e 3f85 0d3d
00000080: e373 41be 89da 513e 68b2 4c3e 3e7a 0f3e
00000090: b342 5dbd 976a 1a3e 7972 a43e f291 b8be
000000a0: 2061 0b3c 7b89 f4bd 5920 a73d baac 92bd
000000b0: 07c4 04bf f81d 9f3d c941 03bf 5488 31be
000000c0: 762e b63c d238 55bd 12a9 ba3e c18f 8d3e
000000d0: 56b8 d53d 7999 db3c c830 bfbc 2ef3 2b3e
000000e0: 5ba2 813d 48ba b43e 3148 63be 2dd8 c8bb
000000f0: f42e 86be 65e7 2fbe 252f aebe f1b5 e93d
00000100: 0482 a5be 4c3d fc3d 184d b83d 0169 99be
00000110: 4ea7 7bbd 6366 73be 0c85 943e bc0e 0fbf
00000120: 07dd 74bd 4776 4c3c 820f 2fbd 30a4 13be
00000130: e583 9fbe ebae 32be deb1 4a3c 3f90 113c
00000140: 1c48 8d3e f833 ef3d dfb0 863d 90a5 983e
00000150: 03d4 b2bd 417f b7be 315e 78bd 9701 4cbc
00000160: cc39 babd 0517 02bc 7c85 883d 11ac 9abd
00000170: 6fe5 10bd 14b2 65be add2 28bd 3356 d53d
00000180: 5eb2 463e 19d2 6c3e 4ef0 a03e e8e2 033e
00000190: 2a58 d9be 491a 44be 8198 173e 50bb ecbd
000001a0: b0bf ac3e 125e 9f3e dfb2 8e3e 2881 233d
000001b0: 7f88 83be bc4d 64be 3e63 2e3e fec8 05be
000001c0: 71d5 053e 8440 323d fb95 70be 062a 803c
000001d0: 35c6 9b3e 0633 60bd 3fee f9bd 9cc8 433c
000001e0: 7855 b93e 4488 27be 2f39 fe3c a921 f83c
000001f0: ef17 52bd bc1a d33e 22fa 14bf 8e11 3d3e
00000200: d245 663d 633e 7a3e 714b 6a3e 4255 973d
00000210: 5bbd 573e 4b3b e6bd 208d 503e 74d2 46be
00000220: b77d e63c 90f0 01bf ee94 0ebd c1f7 09be
00000230: b527 9fbe 0a31 053e ab36 3c3e 7b72 88be
00000240: f05f 0bbd 1bc9 31bd a848 153e 6799 a53e
00000250: 19a4 84be 6b00 63be e153 23be b440 e4bc
00000260: f9a1 5fbd dd43 b9be 863d 68bd 7847 4b3b
00000270: 13db 193e 146d 9ebd e573 d63d 8696 a8be
00000280: da74 04be 3b1d fc3e b9f6 e43d da9c 41bd
00000290: 2fce a23b 52c7 873d 3513 213d d10d 4e3e
000002a0: cba4 5f3e 62f8 d83e 9cc6 943d 6700 8ebd
000002b0: fc66 52be c037 893e 009d 19bd a32f d8bd
000002c0: 51f8 413d a16f ffbd 83c6 323d d184 37be
000002d0: b441 ae3d 7baa bb3b 3351 37be 8139 10be
000002e0: bde0 d4bc 598e 3fbd 1c6a e0bd 755b 55bc
000002f0: b2a2 f63c 062c de3e b5df 08bd 8234 39be
00000300: 4761 143e 5134 f63d c789 473d 1756 ac3d
00000310: d08a 8d3e c122 2dbe 5e31 33be c0ef 86be
00000320: 0d47 453d 3688 103e 94ce ea3d 4cff 49be
00000330: a7c8 7f3d b001 bc3e 2ff9 703e 5746 04be
00000340: 7113 113e 552b 3cbe 21db 173d cfdd 953d
00000350: f226 70bd d272 853d 400e 4abe 6c01 08be
00000360: 4268 a43d cc3e de3c 699a 7d3d 0453 4ebe
00000370: b2fa 61bc 823a 473e 983d 02bd 318a 0e3e
00000380: a8d4 01be c10a 49be 9676 3d3e c6cc 95be
00000390: 3cca 3d3d 3b94 e73d 8f21 e33e 847e a93d
000003a0: 71b8 c53c 64fa 6a3e 2978 de3d 5ac2 04bb
000003b0: cb8b ce3d 550c db3d 8203 f13d 5120 c53c
000003c0: b360 493d 13ac 1b3e 6dbd 12bd ee3f 9fbd
000003d0: 4819 2e3e 87c3 9b3e f002 043c 0d9f 1dbd
000003e0: 8f5d 07be d951 45bd 3761 0cbd ff38 3d3e
000003f0: 9272 6b3c 8243 9ebd a639 023e 1a7e 893e

critic.2.bias f4 [128]
0.21091129 -0.1178261 -0.067101836 -0.26989245 -0.26512748 -0.043730117 -0.04308617 0.05957861
0.059280127 -0.13177332 0.15397437 -0.026461164 -0.077768475 -0.17619395 0.004251423 -0.004950633
-0.14242426 -0.04402955 -0.104651906 0.0579941 0.016069831 0.0066127083 -0.03959313 0.008894956
0.05834057 -0.010742241 0.09026553 0.20304766 0.26557213 -0.03598066 -0.011632768 0.022577412
-0.06402334 0.029502222 -0.041011695 0.057580523 -0.09106133 0.086851165 -0.06474538 0.005064299
-0.008920482 -0.087253146 -0.010361864 -0.0497269 -0.01254322 0.022909237 -0.13741103 -0.13702512
0.049563386 0.015723426 -0.25657225 -0.062746316 -0.6647891 -0.04512243 0.009276609 -0.074311525
0.0072273333 -0.12998758 -0.071584046 0.060890604 -0.37049398 -0.007738376 -0.112277985 -0.084916405
0.052310042 0.1829907 0.054773595 -0.05390842 -0.041690357 0.04588569 0.034918092 -0.041131295
0.034552034 0.04026861 0.30066973 -0.06383933 -0.085874 0.103968695 0.02021038 0.07909503
0.07187676 -0.01973433 0.0014994211 -0.14955512 -0.024349429 -0.052133165 -0.27191174 -0.12903793
0.028541144 0.016062927 0.059805457 -0.1856887 0.065284364 -0.08347733 0.11017647 -0.030247353
-0.1275763 -0.18972115 -0.15647525 -0.2212347 -0.041157104 0.073245004 0.06762985 0.10631417
-0.09230913 0.10789997 0.031688742 0.10209585 0.028874353 -0.06513907 0.04179057 0.035401344
0.046950303 -0.03785455 -0.064517014 0.060401678 0.014246875 0.050839584 0.0803785 -0.038859285
-0.08856766 0.27049252 0.21938689 -0.055864725 -0.021834178 -0.11869686 0.06863444 0.08873174
00000000: 21f9 573e cf4e f1bd b06c 89bd 582f 8abe
00000010: cabe 87be 5a1e 33bd 207b 30bd b308 743d
00000020: b8cf 723d 96ef 06be 75ab 1d3e 15c5 d8bc
00000030: 1445 9fbd 306c 34be 854f 8b3b eb38 a2bb
00000040: aad7 11be 5458 34bd bd53 d6bd 398b 6d3d
00000050: e1a4 833c 6baf d83b 682c 22bd 26bc 113c
00000060: 86f6 6e3d 3900 30bc 22dd b83d baeb 4f3e
00000070: 12f9 873e 7560 13bd 5e97 3ebc 44f4 b83c
00000080: ab1e 83bd a5ae f13c e1fb 27bd 8ed9 6b3d
00000090: 5d7e babd 06df b13d 3a99 84bd 6bf2 a53b
000000a0: 3727 12bc c7b1 b2bd cfc4 29bc 6fae 4bbd
000000b0: 1482 4dbc 27ac bb3c 7ab5 0cbe 5050 0cbe
000000c0: fa02 4b3d 6ace 803c 705d 83be 2481 80bd
000000d0: 9e2f 2abf 4cd2 38bd ebfc 173c a430 98bd
000000e0: 44d3 ec3b 771b 05be a89a 92bd 6d68 793d
000000f0: 63b1 bdbe 3492 fdbb 00f2 e5bd a7e8 adbd
00000100: 0e43 563d ea61 3b3e 475a 603d 13cf 5cbd
00000110: 82c3 2abd a2f2 3b3d 4606 0f3d 4a79 28bd
00000120: 6f86 0d3d b3f0 243d 62f1 993e 32be 82bd
00000130: b5de afbd 8aed d43d 3d90 a53c 93fc a13d
00000140: 1f34 933d e4a9 a1bc 3988 c43a fa24 19be
00000150: 7478 c7bc 9689 55bd 0438 8bbe 8522 04be
00000160: 1ecf e93c 6696 833c 91f6 743d 2e25 3ebe
00000170: cfb3 853d 2af6 aabd 33a4 e13d 4cc9 f7bc
00000180: 5da3 02be 4346 42be 0c3b 20be 598b 62be
00000190: 5a94 28bd 7a01 963d 8581 8a3d 3ebb d93d
000001a0: 920c bdbd a9fa dc3d 0ecc 013d a117 d13d
000001b0: e889 ec3c a267 85bd 972c 2b3d 0001 113d
000001c0: f64e 403d 5f0d 1bbd 7f21 84bd c067 773d
000001d0: ba6b 693c 2b3d 503d 7c9d a43d ea2a 1fbd
000001e0: f662 b5bd ff7d 8a3e f5a6 603e 69d2 64bd
000001f0: 97dd b2bc 5717 f3bd 3790 8c3d fdb8 b53d

critic.4.weight f4 [1, 128]
0.0096552 -0.026552347 0.0014027006 0.04854011 -0.016429592 -0.05551287 0.019875638 -0.061241075
0.013466347 0.0010570593 -0.046455774 -0.008867288 0.011843418 0.15447985 0.00055433647 -8.614855e-06
0.03367072 0.04480101 -0.06640999 0.00043570806 -0.00916586 -1.546478e-05 0.0008795088 0.00636348
2.4465326e-05 -0.00048616625 -0.0009228405 -0.05755283 0.21785463 0.0007235112 -6.736335e-05 0.0071998974
0.0006979136 0.000116461146 0.00297374 0.00075197493 -0.035284795 0.023216696 -7.999515e-05 -0.00052959245
0.023458919 -4.855739e-05 0.009031468 -0.000340572 0.0076166033 0.013584512 0.27629754 0.006944808
-0.018966647 0.0011499607 0.044162083 0.00039948153 -0.22103639 -0.025614655 -0.0015817571 -0.027561778
0.00092805136 -0.13640366 -0.004351431 -0.0010049052 0.2595167 -0.0071803182 0.00026095152 -0.019413752
2.3039176e-05 -0.0688072 0.00055192056 -0.024837742 0.00017988672 0.0071420134 0.00038802743 0.0052420585
-0.00036354596 -0.00042489776 -0.18258384 0.0006621921 -7.5754644e-05 0.05056441 -0.0010581636 0.00010805771
0.00056377874 -0.0009936005 -0.00017901046 0.13260627 0.011586273 -0.0005050612 0.106937334 0.014553552
0.034901876 -0.00010927822 -0.00062029064 -0.20453295 -0.0005882767 -0.0005119914 0.014037928 -0.0040585543
0.12919763 0.071931176 -0.054691035 -0.21727535 0.0011576862 -0.00030454964 0.06163247 -0.059991535
-0.0006208555 -0.00066277164 -0.00083825726 0.010539739 0.0010452366 -0.05705731 0.0001989299 -0.0002760361
0.0005121629 -0.00042308893 -0.18915847 -0.0008021042 -0.01866299 0.019367306 0.015350322 0.0076899496
0.050416607 -0.27227306 0.05902012 0.011460255 0.0060739173 -0.086158246 0.011922042 -0.00017008345
00000000: d830 1e3c 4f84 d9bc d2da b73a ffd1 463d
00000010: 5a97 86bc 7761 63bd 3cd2 a23c ecd7 7abd
00000020: f4a1 5c3c 068d 8a3a 6948 3ebd 1a48 11bc
00000030: e50a 423c f72f 1e3e e450 113a 8588 10b7
00000040: 4fea 093d 4481 373d f601 88bd bf6f e439
00000050: 672c 16bc 5dba 81b7 d68e 663a bd84 d03b
00000060: e33a cd37 21e4 feb9 c7ea 71ba 84bc 6bbd
00000070: 4915 5f3e 04aa 3d3a 6c45 8db8 1eed eb3b
00000080: 30f4 363a 9a3c f438 14e3 423b 2f20 453a
00000090: ca86 10bd f130 be3c 12c3 a7b8 59d4 0aba
000000a0: eb2c c03c 1aaa 4bb8 b9f8 133c cd8e b2b9
000000b0: b394 f93b 9391 5e3c df76 8d3e 4691 e33b
000000c0: f15f 9bbc 47ba 963a 4de3 343d 8171 d139
000000d0: 5d57 62be d3d5 d1bc f652 cfba 3dc9 e1bc
000000e0: 7948 733a 67ad 0bbe 7396 8ebb 06b7 83ba
000000f0: 5fdf 843e e048 ebbb 52d0 8839 9709 9fbc
00000100: 4144 c137 caea 8cbd c3ae 103a 8578 cbbc
00000110: f99f 3c39 8d07 ea3b 2970 cb39 93c5 ab3b
00000120: 509a beb9 d0c4 deb9 42f7 3abe f696 2d3a
00000130: 77de 9eb8 a01c 4f3d 14b2 8aba 0b9d e238
00000140: 8dca 133a b33b 82ba c1b4 3bb9 f0c9 073e
00000150: 5ad4 3d3c 1566 04ba f601 db3d 0572 6e3c
00000160: 45f5 0e3d 4c2c e5b8 009b 22ba 1671 51be
00000170: 9536 1aba 2937 06ba 56ff 653c 9ffd 84bb
00000180: 624c 043e a750 933d b503 60bd 6e7d 5ebe
00000190: 81bd 973a f6ab 9fb9 5472 7c3d afb9 75bd
000001a0: e8c0 22ba dabd 2dba 7ebe 5bba dfae 2c3c
000001b0: 5200 893a edb4 69bd d797 5039 f0b8 90b9
000001c0: ac42 063a 09d2 ddb9 c2b2 41be 4d44 52ba
000001d0: 20e3 98bc 2fa8 9e3c eb7f 7b3c f9fb fb3b
000001e0: a581 4e3d 6067 8bbe 15bf 713d cbc3 3b3c
000001f0: b607 c73b bc73 b0bd ab54 433c 6e58 32b9

exp_avg f4 [4]
0.001124189 -0.0060300105 0.00073895266 0.0016267862
00000000: 8659 933a 6597 c5bb 46b6 413a e339 d53a

exp_avg_sq f4 [4]
0.00018062863 0.009011619 0.0065668565 0.0001284754
00000000: 2167 3d39 78a5 133c c92e d73b 5ab7 0639
